=================================================================
=================================================================
MNIST
=================================================================
=================================================================
Layer (type)                 Output Shape              Param #   
=================================================================
conv2d_1 (Conv2D)            (None, 26, 26, 64)        640       
_________________________________________________________________
activation_1 (Activation)    (None, 26, 26, 64)        0         
_________________________________________________________________
conv2d_2 (Conv2D)            (None, 24, 24, 64)        36928     
_________________________________________________________________
activation_2 (Activation)    (None, 24, 24, 64)        0         
_________________________________________________________________
max_pooling2d_1 (MaxPooling2 (None, 12, 12, 64)        0         
_________________________________________________________________
dropout_1 (Dropout)          (None, 12, 12, 64)        0         
_________________________________________________________________
flatten_1 (Flatten)          (None, 9216)              0         
_________________________________________________________________
dense_1 (Dense)              (None, 128)               1179776   
_________________________________________________________________
activation_3 (Activation)    (None, 128)               0         
_________________________________________________________________
dropout_2 (Dropout)          (None, 128)               0         
_________________________________________________________________
dense_2 (Dense)              (None, 10)                1290      
_________________________________________________________________
activation_4 (Activation)    (None, 10)                0         
=================================================================
Total params: 1,218,634
Trainable params: 1,218,634
Non-trainable params: 0
________________________________________________________________

=================================================================
=================================================================
CIFAR
=================================================================
=================================================================
Layer (type)                 Output Shape              Param #   
=================================================================
activation_7 (Activation)    (None, 8, 8, 256)         0         
_________________________________________________________________
batch_normalization_7 (Batch (None, 8, 8, 256)         1024      
_________________________________________________________________
max_pooling2d_3 (MaxPooling2 (None, 4, 4, 256)         0         
_________________________________________________________________
conv2d_8 (Conv2D)            (None, 4, 4, 512)         1180160   
_________________________________________________________________
activation_8 (Activation)    (None, 4, 4, 512)         0         
_________________________________________________________________
batch_normalization_8 (Batch (None, 4, 4, 512)         2048      
_________________________________________________________________
dropout_5 (Dropout)          (None, 4, 4, 512)         0         
_________________________________________________________________
conv2d_9 (Conv2D)            (None, 4, 4, 512)         2359808   
_________________________________________________________________
activation_9 (Activation)    (None, 4, 4, 512)         0         
_________________________________________________________________
batch_normalization_9 (Batch (None, 4, 4, 512)         2048      
_________________________________________________________________
dropout_6 (Dropout)          (None, 4, 4, 512)         0         
_________________________________________________________________
conv2d_10 (Conv2D)           (None, 4, 4, 512)         2359808   
_________________________________________________________________
activation_10 (Activation)   (None, 4, 4, 512)         0         
_________________________________________________________________
batch_normalization_10 (Batc (None, 4, 4, 512)         2048      
_________________________________________________________________
max_pooling2d_4 (MaxPooling2 (None, 2, 2, 512)         0         
_________________________________________________________________
dropout_7 (Dropout)          (None, 2, 2, 512)         0         
_________________________________________________________________
flatten_1 (Flatten)          (None, 2048)              0         
_________________________________________________________________
dense_1 (Dense)              (None, 512)               1049088   
_________________________________________________________________
activation_11 (Activation)   (None, 512)               0         
_________________________________________________________________
batch_normalization_11 (Batc (None, 512)               2048      
_________________________________________________________________
dropout_8 (Dropout)          (None, 512)               0         
_________________________________________________________________
dense_2 (Dense)              (None, 10)                5130      
_________________________________________________________________
activation_12 (Activation)   (None, 10)                0         
=================================================================
Total params: 8,702,282
Trainable params: 8,695,882
Non-trainable params: 6,400
________________________________________________________________

=================================================================
# best model for mnist dataset: ./model/mnist_model_improvement-235-0.99.h5
# best model for cifar dataset: ./model/cifar_model_improvement-491-0.88.h5
…
=================================================================
# cifar dataset -- label
0:'airplane', 1:'automobile', 2:'bird', 3:'cat', 4:'deer', 5:'dog', 6:'frog', 7:'horse', 8:'ship', 9:'truck'
=================================================================

=================================================================
# folder "metrics": contain all metrics (i.e., surprise adequacy, confidence score, etc.)
confidnet (MNIST): epoch_115
confidnet (CIFAR): epoch_315
=================================================================

IMAGENET_VGG16(fc1)
=================================================================
block2_pool (MaxPooling2D)   (None, 56, 56, 128)       0         
_________________________________________________________________
block3_conv1 (Conv2D)        (None, 56, 56, 256)       295168    
_________________________________________________________________
block3_conv2 (Conv2D)        (None, 56, 56, 256)       590080    
_________________________________________________________________
block3_conv3 (Conv2D)        (None, 56, 56, 256)       590080    
_________________________________________________________________
block3_pool (MaxPooling2D)   (None, 28, 28, 256)       0         
_________________________________________________________________
block4_conv1 (Conv2D)        (None, 28, 28, 512)       1180160   
_________________________________________________________________
block4_conv2 (Conv2D)        (None, 28, 28, 512)       2359808   
_________________________________________________________________
block4_conv3 (Conv2D)        (None, 28, 28, 512)       2359808   
_________________________________________________________________
block4_pool (MaxPooling2D)   (None, 14, 14, 512)       0         
_________________________________________________________________
block5_conv1 (Conv2D)        (None, 14, 14, 512)       2359808   
_________________________________________________________________
block5_conv2 (Conv2D)        (None, 14, 14, 512)       2359808   
_________________________________________________________________
block5_conv3 (Conv2D)        (None, 14, 14, 512)       2359808   
_________________________________________________________________
block5_pool (MaxPooling2D)   (None, 7, 7, 512)         0         
_________________________________________________________________
flatten (Flatten)            (None, 25088)             0         
_________________________________________________________________
fc1 (Dense)                  (None, 4096)              102764544 
_________________________________________________________________
fc2 (Dense)                  (None, 4096)              16781312  
_________________________________________________________________
predictions (Dense)          (None, 1000)              4097000   
=================================================================

IMAGENET_DENSENET201 (avg_pool, fc1000)
==================================================================================================
conv5_block28_1_relu (Activatio (None, 7, 7, 128)    0           conv5_block28_1_bn[0][0]         
__________________________________________________________________________________________________
conv5_block28_2_conv (Conv2D)   (None, 7, 7, 32)     36864       conv5_block28_1_relu[0][0]       
__________________________________________________________________________________________________
conv5_block28_concat (Concatena (None, 7, 7, 1792)   0           conv5_block27_concat[0][0]       
                                                                 conv5_block28_2_conv[0][0]       
__________________________________________________________________________________________________
conv5_block29_0_bn (BatchNormal (None, 7, 7, 1792)   7168        conv5_block28_concat[0][0]       
__________________________________________________________________________________________________
conv5_block29_0_relu (Activatio (None, 7, 7, 1792)   0           conv5_block29_0_bn[0][0]         
__________________________________________________________________________________________________
conv5_block29_1_conv (Conv2D)   (None, 7, 7, 128)    229376      conv5_block29_0_relu[0][0]       
__________________________________________________________________________________________________
conv5_block29_1_bn (BatchNormal (None, 7, 7, 128)    512         conv5_block29_1_conv[0][0]       
__________________________________________________________________________________________________
conv5_block29_1_relu (Activatio (None, 7, 7, 128)    0           conv5_block29_1_bn[0][0]         
__________________________________________________________________________________________________
conv5_block29_2_conv (Conv2D)   (None, 7, 7, 32)     36864       conv5_block29_1_relu[0][0]       
__________________________________________________________________________________________________
conv5_block29_concat (Concatena (None, 7, 7, 1824)   0           conv5_block28_concat[0][0]       
                                                                 conv5_block29_2_conv[0][0]       
__________________________________________________________________________________________________
conv5_block30_0_bn (BatchNormal (None, 7, 7, 1824)   7296        conv5_block29_concat[0][0]       
__________________________________________________________________________________________________
conv5_block30_0_relu (Activatio (None, 7, 7, 1824)   0           conv5_block30_0_bn[0][0]         
__________________________________________________________________________________________________
conv5_block30_1_conv (Conv2D)   (None, 7, 7, 128)    233472      conv5_block30_0_relu[0][0]       
__________________________________________________________________________________________________
conv5_block30_1_bn (BatchNormal (None, 7, 7, 128)    512         conv5_block30_1_conv[0][0]       
__________________________________________________________________________________________________
conv5_block30_1_relu (Activatio (None, 7, 7, 128)    0           conv5_block30_1_bn[0][0]         
__________________________________________________________________________________________________
conv5_block30_2_conv (Conv2D)   (None, 7, 7, 32)     36864       conv5_block30_1_relu[0][0]       
__________________________________________________________________________________________________
conv5_block30_concat (Concatena (None, 7, 7, 1856)   0           conv5_block29_concat[0][0]       
                                                                 conv5_block30_2_conv[0][0]       
__________________________________________________________________________________________________
conv5_block31_0_bn (BatchNormal (None, 7, 7, 1856)   7424        conv5_block30_concat[0][0]       
__________________________________________________________________________________________________
conv5_block31_0_relu (Activatio (None, 7, 7, 1856)   0           conv5_block31_0_bn[0][0]         
__________________________________________________________________________________________________
conv5_block31_1_conv (Conv2D)   (None, 7, 7, 128)    237568      conv5_block31_0_relu[0][0]       
__________________________________________________________________________________________________
conv5_block31_1_bn (BatchNormal (None, 7, 7, 128)    512         conv5_block31_1_conv[0][0]       
__________________________________________________________________________________________________
conv5_block31_1_relu (Activatio (None, 7, 7, 128)    0           conv5_block31_1_bn[0][0]         
__________________________________________________________________________________________________
conv5_block31_2_conv (Conv2D)   (None, 7, 7, 32)     36864       conv5_block31_1_relu[0][0]       
__________________________________________________________________________________________________
conv5_block31_concat (Concatena (None, 7, 7, 1888)   0           conv5_block30_concat[0][0]       
                                                                 conv5_block31_2_conv[0][0]       
__________________________________________________________________________________________________
conv5_block32_0_bn (BatchNormal (None, 7, 7, 1888)   7552        conv5_block31_concat[0][0]       
__________________________________________________________________________________________________
conv5_block32_0_relu (Activatio (None, 7, 7, 1888)   0           conv5_block32_0_bn[0][0]         
__________________________________________________________________________________________________
conv5_block32_1_conv (Conv2D)   (None, 7, 7, 128)    241664      conv5_block32_0_relu[0][0]       
__________________________________________________________________________________________________
conv5_block32_1_bn (BatchNormal (None, 7, 7, 128)    512         conv5_block32_1_conv[0][0]       
__________________________________________________________________________________________________
conv5_block32_1_relu (Activatio (None, 7, 7, 128)    0           conv5_block32_1_bn[0][0]         
__________________________________________________________________________________________________
conv5_block32_2_conv (Conv2D)   (None, 7, 7, 32)     36864       conv5_block32_1_relu[0][0]       
__________________________________________________________________________________________________
conv5_block32_concat (Concatena (None, 7, 7, 1920)   0           conv5_block31_concat[0][0]       
                                                                 conv5_block32_2_conv[0][0]       
__________________________________________________________________________________________________
bn (BatchNormalization)         (None, 7, 7, 1920)   7680        conv5_block32_concat[0][0]       
__________________________________________________________________________________________________
relu (Activation)               (None, 7, 7, 1920)   0           bn[0][0]                         
__________________________________________________________________________________________________
avg_pool (GlobalAveragePooling2 (None, 1920)         0           relu[0][0]                       
__________________________________________________________________________________________________
fc1000 (Dense)                  (None, 1000)         1921000     avg_pool[0][0]                   
==================================================================================================
