=================================================================
=================================================================
MNIST
=================================================================
=================================================================
Layer (type)                 Output Shape              Param #   
=================================================================
conv2d_1 (Conv2D)            (None, 26, 26, 64)        640       
_________________________________________________________________
activation_1 (Activation)    (None, 26, 26, 64)        0         
_________________________________________________________________
conv2d_2 (Conv2D)            (None, 24, 24, 64)        36928     
_________________________________________________________________
activation_2 (Activation)    (None, 24, 24, 64)        0         
_________________________________________________________________
max_pooling2d_1 (MaxPooling2 (None, 12, 12, 64)        0         
_________________________________________________________________
dropout_1 (Dropout)          (None, 12, 12, 64)        0         
_________________________________________________________________
flatten_1 (Flatten)          (None, 9216)              0         
_________________________________________________________________
dense_1 (Dense)              (None, 128)               1179776   
_________________________________________________________________
activation_3 (Activation)    (None, 128)               0         
_________________________________________________________________
dropout_2 (Dropout)          (None, 128)               0         
_________________________________________________________________
dense_2 (Dense)              (None, 10)                1290      
_________________________________________________________________
activation_4 (Activation)    (None, 10)                0         
=================================================================
Total params: 1,218,634
Trainable params: 1,218,634
Non-trainable params: 0
________________________________________________________________

=================================================================
=================================================================
CIFAR
=================================================================
=================================================================
Layer (type)                 Output Shape              Param #   
=================================================================
activation_7 (Activation)    (None, 8, 8, 256)         0         
_________________________________________________________________
batch_normalization_7 (Batch (None, 8, 8, 256)         1024      
_________________________________________________________________
max_pooling2d_3 (MaxPooling2 (None, 4, 4, 256)         0         
_________________________________________________________________
conv2d_8 (Conv2D)            (None, 4, 4, 512)         1180160   
_________________________________________________________________
activation_8 (Activation)    (None, 4, 4, 512)         0         
_________________________________________________________________
batch_normalization_8 (Batch (None, 4, 4, 512)         2048      
_________________________________________________________________
dropout_5 (Dropout)          (None, 4, 4, 512)         0         
_________________________________________________________________
conv2d_9 (Conv2D)            (None, 4, 4, 512)         2359808   
_________________________________________________________________
activation_9 (Activation)    (None, 4, 4, 512)         0         
_________________________________________________________________
batch_normalization_9 (Batch (None, 4, 4, 512)         2048      
_________________________________________________________________
dropout_6 (Dropout)          (None, 4, 4, 512)         0         
_________________________________________________________________
conv2d_10 (Conv2D)           (None, 4, 4, 512)         2359808   
_________________________________________________________________
activation_10 (Activation)   (None, 4, 4, 512)         0         
_________________________________________________________________
batch_normalization_10 (Batc (None, 4, 4, 512)         2048      
_________________________________________________________________
max_pooling2d_4 (MaxPooling2 (None, 2, 2, 512)         0         
_________________________________________________________________
dropout_7 (Dropout)          (None, 2, 2, 512)         0         
_________________________________________________________________
flatten_1 (Flatten)          (None, 2048)              0         
_________________________________________________________________
dense_1 (Dense)              (None, 512)               1049088   
_________________________________________________________________
activation_11 (Activation)   (None, 512)               0         
_________________________________________________________________
batch_normalization_11 (Batc (None, 512)               2048      
_________________________________________________________________
dropout_8 (Dropout)          (None, 512)               0         
_________________________________________________________________
dense_2 (Dense)              (None, 10)                5130      
_________________________________________________________________
activation_12 (Activation)   (None, 10)                0         
=================================================================
Total params: 8,702,282
Trainable params: 8,695,882
Non-trainable params: 6,400
________________________________________________________________

=================================================================
# best model for mnist dataset: ./model/mnist_model_improvement-235-0.99.h5
# best model for cifar dataset: ./model/cifar_model_improvement-491-0.88.h5
…
